…
    },
    "id": "9HI8_wKTkxJ1",
    "outputId": "7bd8188e-11ec-4290-9dca-990b76d3391d"
   },
   "outputs": [
    {
     "data": {
      "application/vnd.jupyter.widget-view+json": {
       "model_id": "35369da031fd451eb62cc77dab556081",
       "version_major": 2,
       "version_minor": 0
      },
      "text/plain": [
       "open_clip_pytorch_model.bin:   0%|          | 0.00/605M [00:00<?, ?B/s]"
      ]
     },
     "metadata": {},
     "output_type": "display_data"
    },
    {
     "data": {
      "text/plain": [
       "CLIP(\n",
       "  (visual): VisionTransformer(\n",
       "    (conv1): Conv2d(3, 768, kernel_size=(32, 32), stride=(32, 32), bias=False)\n",
       "    (patch_dropout): Identity()\n",
       "    (ln_pre): LayerNorm((768,), eps=1e-05, elementwise_affine=True)\n",
       "    (transformer): Transformer(\n",
       "      (resblocks): ModuleList(\n",
       "        (0-11): 12 x ResidualAttentionBlock(\n",
       "          (ln_1): LayerNorm((768,), eps=1e-05, elementwise_affine=True)\n",
       "          (attn): MultiheadAttention(\n",
       "            (out_proj): NonDynamicallyQuantizableLinear(in_features=768, out_features=768, bias=True)\n",
       "          )\n",
       "          (ls_1): Identity()\n",
       "          (ln_2): LayerNorm((768,), eps=1e-05, elementwise_affine=True)\n",
       "          (mlp): Sequential(\n",
       "            (c_fc): Linear(in_features=768, out_features=3072, bias=True)\n",
       "            (gelu): GELU(approximate='none')\n",
       "            (c_proj): Linear(in_features=3072, out_features=768, bias=True)\n",
       "          )\n",
       "          (ls_2): Identity()\n",
       "        )\n",
       "      )\n",
       "    )\n",
       "    (ln_post): LayerNorm((768,), eps=1e-05, elementwise_affine=True)\n",
       "  )\n",
       "  (transformer): Transformer(\n",
       "    (resblocks): ModuleList(\n",
       "      (0-11): 12 x ResidualAttentionBlock(\n",
       "        (ln_1): LayerNorm((512,), eps=1e-05, elementwise_affine=True)\n",
       "        (attn): MultiheadAttention(\n",
       "          (out_proj): NonDynamicallyQuantizableLinear(in_features=512, out_features=512, bias=True)\n",
       "        )\n",
       "        (ls_1): Identity()\n",
       "        (ln_2): LayerNorm((512,), eps=1e-05, elementwise_affine=True)\n",
       "        (mlp): Sequential(\n",
       "          (c_fc): Linear(in_features=512, out_features=2048, bias=True)\n",
       "          (gelu): GELU(approximate='none')\n",
       "          (c_proj): Linear(in_features=2048, out_features=512, bias=True)\n",
       "        )\n",
       "        (ls_2): Identity()\n",
       "      )\n",
       "    )\n",
       "  )\n",
       "  (token_embedding): Embedding(49408, 512)\n",
       "  (ln_final): LayerNorm((512,), eps=1e-05, elementwise_affine=True)\n",
       ")"
      ]
     },
     "execution_count": 4,
     "metadata": {},
     "output_type": "execute_result"
    }
   ],
   "source": [
    "# load the CLIP model, ViT-B-32\n",
    "model, _, preprocess = open_clip.create_model_and_transforms(\n",
    "    \"ViT-B-32\", pretrained=\"laion2b_s34b_b79k\"\n",
    ")\n",
    "tokenizer = open_clip.get_tokenizer(\"ViT-B-32\")\n",
…
